{"format": "layers-model", "generatedBy": null, "convertedBy": "TensorFlow.js Converter v1.5.2", "modelTopology": null, "weightsManifest": [{"paths": ["group1-shard1of34.bin", "group1-shard2of34.bin", "group1-shard3of34.bin", "group1-shard4of34.bin", "group1-shard5of34.bin", "group1-shard6of34.bin", "group1-shard7of34.bin", "group1-shard8of34.bin", "group1-shard9of34.bin", "group1-shard10of34.bin", "group1-shard11of34.bin", "group1-shard12of34.bin", "group1-shard13of34.bin", "group1-shard14of34.bin", "group1-shard15of34.bin", "group1-shard16of34.bin", "group1-shard17of34.bin", "group1-shard18of34.bin", "group1-shard19of34.bin", "group1-shard20of34.bin", "group1-shard21of34.bin", "group1-shard22of34.bin", "group1-shard23of34.bin", "group1-shard24of34.bin", "group1-shard25of34.bin", "group1-shard26of34.bin", "group1-shard27of34.bin", "group1-shard28of34.bin", "group1-shard29of34.bin", "group1-shard30of34.bin", "group1-shard31of34.bin", "group1-shard32of34.bin", "group1-shard33of34.bin", "group1-shard34of34.bin"], "weights": [{"name": "conv2d_1/kernel", "shape": [3, 3, 3, 64], "dtype": "float32"}, {"name": "conv2d_1/bias", "shape": [64], "dtype": "float32"}, {"name": "conv2d_2/kernel", "shape": [3, 3, 64, 64], "dtype": "float32"}, {"name": "conv2d_2/bias", "shape": [64], "dtype": "float32"}, {"name": "conv2d_3/kernel", "shape": [3, 3, 64, 128], "dtype": "float32"}, {"name": "conv2d_3/bias", "shape": [128], "dtype": "float32"}, {"name": "conv2d_4/kernel", "shape": [3, 3, 128, 128], "dtype": "float32"}, {"name": "conv2d_4/bias", "shape": [128], "dtype": "float32"}, {"name": "conv2d_5/kernel", "shape": [3, 3, 128, 256], "dtype": "float32"}, {"name": "conv2d_5/bias", "shape": [256], "dtype": "float32"}, {"name": "conv2d_6/kernel", "shape": [3, 3, 256, 256], "dtype": "float32"}, {"name": "conv2d_6/bias", "shape": [256], "dtype": "float32"}, {"name": "conv2d_7/kernel", "shape": [3, 3, 256, 256], "dtype": "float32"}, {"name": "conv2d_7/bias", "shape": [256], "dtype": "float32"}, {"name": "conv2d_8/kernel", "shape": [3, 3, 256, 256], "dtype": "float32"}, {"name": "conv2d_8/bias", "shape": [256], "dtype": "float32"}, {"name": "conv2d_9/kernel", "shape": [3, 3, 256, 512], "dtype": "float32"}, {"name": "conv2d_9/bias", "shape": [512], "dtype": "float32"}, {"name": "conv2d_10/kernel", "shape": [3, 3, 512, 512], "dtype": "float32"}, {"name": "conv2d_10/bias", "shape": [512], "dtype": "float32"}, {"name": "conv2d_11/kernel", "shape": [3, 3, 512, 512], "dtype": "float32"}, {"name": "conv2d_11/bias", "shape": [512], "dtype": "float32"}, {"name": "conv2d_12/kernel", "shape": [3, 3, 512, 512], "dtype": "float32"}, {"name": "conv2d_12/bias", "shape": [512], "dtype": "float32"}, {"name": "conv2d_13/kernel", "shape": [3, 3, 512, 512], "dtype": "float32"}, {"name": "conv2d_13/bias", "shape": [512], "dtype": "float32"}, {"name": "conv2d_14/kernel", "shape": [3, 3, 512, 512], "dtype": "float32"}, {"name": "conv2d_14/bias", "shape": [512], "dtype": "float32"}, {"name": "conv2d_15/kernel", "shape": [3, 3, 512, 512], "dtype": "float32"}, {"name": "conv2d_15/bias", "shape": [512], "dtype": "float32"}, {"name": "conv2d_16/kernel", "shape": [3, 3, 512, 512], "dtype": "float32"}, {"name": "conv2d_16/bias", "shape": [512], "dtype": "float32"}, {"name": "dense_1/kernel", "shape": [12800, 1024], "dtype": "float32"}, {"name": "dense_1/bias", "shape": [1024], "dtype": "float32"}, {"name": "dense_2/kernel", "shape": [1024, 1000], "dtype": "float32"}, {"name": "dense_2/bias", "shape": [1000], "dtype": "float32"}, {"name": "dense_3/kernel", "shape": [1000, 500], "dtype": "float32"}, {"name": "dense_3/bias", "shape": [500], "dtype": "float32"}, {"name": "dense_4/kernel", "shape": [500, 128], "dtype": "float32"}, {"name": "dense_4/bias", "shape": [128], "dtype": "float32"}, {"name": "dense_5/kernel", "shape": [128, 128], "dtype": "float32"}, {"name": "dense_5/bias", "shape": [128], "dtype": "float32"}, {"name": "dense_6/kernel", "shape": [128, 64], "dtype": "float32"}, {"name": "dense_6/bias", "shape": [64], "dtype": "float32"}, {"name": "dense_7/kernel", "shape": [64, 1], "dtype": "float32"}, {"name": "dense_7/bias", "shape": [1], "dtype": "float32"}]}]}